adapter_model.safetensors (safetensors, 820280 bytes, 8 tensors)

base_model.model.model.layers.0.self_attn.k_proj.lora_A.weight f4 [16, 2048]
000000 8f c5 60 bc 04 e7 40 3a d0 99 1a bc 50 58 1e 3c
       -0.013718977 0.0007358643 -0.009436086 0.00966461
000010 4b 20 47 3c ab 87 a7 bc 37 b1 91 ba 8e ee 64 3c
       0.012153695 -0.020450434 -0.0011115436 0.0139728915
000020 96 21 43 3c 16 e1 f5 3b 79 b5 08 bc a5 e4 04 39
       0.011909863 0.007503639 -0.008344048 0.00012673678
000030 3b 43 5a bc 4e 55 91 bc f5 b9 d8 bb 08 98 00 bc
       -0.013321693 -0.017740872 -0.0066139647 -0.007848747
000040 7b a2 9b 3c d9 bc 54 3c 6a ee b4 bb 06 58 d1 3c
       0.018998375 0.012984478 -0.0055215852 0.025554668
000050 82 4b af 3c 4a 83 63 bc 06 52 82 bb 81 60 2c 3c
       0.02139831 -0.013886282 -0.003977063 0.010521055
000060 97 70 2e 3a a2 09 a2 3c f3 53 84 bc 33 d3 84 3a
       0.00066543504 0.019779984 -0.016153311 0.0010133743
000070 cc b3 bf 3a 63 08 6a bb 52 c2 9f 3c 00 ac c3 bb
       0.0014625727 -0.0035710565 0.019501839 -0.0059714317
000080 6d 1e a1 bb 95 97 a1 3c 7a 8e b5 3c e9 5f 82 3c
       -0.004916957 0.0197256 0.022162665 0.015914874
000090 a3 d3 8e bb 5f 76 25 3c da a5 4f 3c ca 21 60 bc
       -0.004358725 0.010099023 0.012673819 -0.013679931
0000a0 cf e3 0e 37 28 54 b6 3c a3 23 2b 3c b7 3f f0 ba
       8.5169e-06 0.022256926 0.010445508 -0.0018329535
0000b0 58 da fb bb ee 7f c9 3c bd 11 ac 3b 56 bb bd bb
       -0.0076859407 0.024597134 0.005251138 -0.0057901544
0000c0 ef df a8 3c df 9b 9a 3c 8f 26 bb bb 1f 50 3b 3b
       0.020614592 0.018873153 -0.0057113837 0.0028581691
0000d0 60 42 74 3c b5 c6 56 bc fb a0 7c bc b3 be 81 3c
       0.014908403 -0.013108899 -0.01541924 0.015838003
0000e0 74 a2 80 bc fd ad 1e bc ae 9d 03 39 f8 19 01 3b
       -0.015702464 -0.009685037 0.00012551874 0.0019699316
0000f0 dc ba 7e bc a0 ef ab bc 13 0a 3d 3c 98 75 03 bc
       -0.01554748 -0.020988286 0.011538046 -0.008023642
000100 63 ac 66 3c a3 d8 92 3c d9 c2 70 3c 35 ff 93 bc
       0.014079186 0.017925566 0.014694893 -0.018066028
000110 67 e4 40 bc 6d 9c 0c 3c 44 19 c8 3c 9b ee 26 bc
       -0.011773205 0.008582217 0.02442611 -0.010188724
000120 8e bf 73 bc 68 53 54 3c 85 3d 8c 3c ae c8 25 3c
       -0.014877213 0.012959339 0.017119179 0.010118647
000130 6d 82 a4 3c 8d b7 96 3a da a0 45 bc c8 14 a0 3c
       0.020081723 0.0011498794 -0.012062276 0.01954116
000140 ba bb d5 3c aa 8b 9e 3c 46 bc 55 bc b2 4c 69 bc
       0.026090492 0.019353706 -0.013045376 -0.014239477
000150 75 86 69 bc c2 a8 d0 3c 1f 22 22 bc 12 87 8a 3c
       -0.014253248 0.025471095 -0.00989583 0.01691011
000160 20 ec 04 bb 6c a0 49 3c d8 ad 16 bc 06 93 b8 3c
       -0.0020282343 0.012306314 -0.009196721 0.022531044
000170 26 37 63 bc 13 cf 9c ba 75 2d 16 bc 84 a9 b9 bc
       -0.013868129 -0.0011963568 -0.009166111 -0.02266384
000180 b1 30 bd bc ef b0 9b 3b bb 62 b4 3b a5 54 f4 3b
       -0.023094507 0.0047513167 0.0055049337 0.0074563795
000190 9b 5a 75 3c 54 04 9c bc 42 88 8a 3c 16 25 a0 bc
       0.014975215 -0.019045033 0.016910676 -0.019548934
0001a0 93 13 e5 3b 0e 99 d3 3c 0b a4 bb bc 95 54 4e 3c
       0.006990859 0.025829818 -0.02290537 0.012593408
0001b0 1a d5 b6 b9 21 1e 96 3c b9 8c 5a 3c 28 da a6 bc
       -0.00034872518 0.018324913 0.013339215 -0.020367697
0001c0 84 b8 8c bc 10 d0 50 3c 93 53 a5 bc c6 0a 99 bc
       -0.017177828 0.012744918 -0.020181453 -0.018681895
0001d0 ad d5 1d bc 23 97 65 bc 19 de 4e 3c bd 54 9b bb
       -0.009633464 -0.014013085 0.012626194 -0.004740326
0001e0 ed 77 9b 3c fc 9c 9e 3c 48 3c 0f 3b 1e 9c 78 3c
       0.018978084 0.019361965 0.0021855999 0.01517394
0001f0 73 4c 3b 3c 47 5c a9 bc 93 0a 54 3c 82 f7 b2 3b
       0.011431801 -0.020673884 0.012941974 0.005461634
000200 c6 93 f5 3b 2d 4b e9 bc e8 fe b4 bc 2d 70 19 bc
       0.0074944226 -0.02847823 -0.022094205 -0.009365124
000210 81 63 98 bc 47 22 ac bb 10 95 42 3b 19 71 71 3c
       -0.018602135 -0.0052531096 0.00296909 0.014736437
000220 93 c3 17 3c ae 3e da 3b f2 fa ff ba 17 20 75 bb
       0.009262937 0.006660304 -0.0019529744 -0.003740316
000230 3d 8d 0f bc ab fe 30 3c a7 37 08 3c f6 29 1f 3b
       -0.008761701 0.010802905 0.00831405 0.0024286485
000240 61 39 33 bc 63 fb 42 bc ad bd 9c 3c a1 17 a1 3a
       -0.010938973 -0.011900756 0.019133413 0.0012290367
000250 c9 9f 57 bc 83 3c a4 bc ce 5b 62 3b 88 00 6c bb
       -0.013160654 -0.020048385 0.0034539583 -0.003601106
000260 1f a4 9f bc ca fa 07 bc 19 1a 47 bb 77 5b 05 3c
       -0.019487439 -0.008299539 -0.0030380546 0.008139483
000270 22 df 2c 3c 6e 77 2d 3c 90 a6 98 bc 4c 65 24 3c
       0.010551246 0.010587556 -0.01863411 0.010033917
000280 8a ff 5e 3c 1e f7 ff 3b a1 b1 0c bc 82 1e cf 3b
       0.01361073 0.007811441 -0.008587272 0.0063207755
000290 c4 42 a2 3c 17 4a b1 bc a3 02 a5 bb 83 ab 82 bc
       0.019807227 -0.021641774 -0.0050357147 -0.015950924
0002a0 f2 db f7 3b ff 28 9a 3c 42 40 99 bb 1f f2 63 3b
       0.0075640613 0.018818377 -0.0046768496 0.0034781767
0002b0 e9 58 c4 3b 58 97 8e 3b 75 ba 20 3c b0 3e 6c bc
       0.005992044 0.0043515377 0.00981008 -0.014419243
0002c0 d4 6c 9e 3c da 53 38 3c 87 58 60 3c cc 79 0f 3c
       0.019339003 0.0112504605 0.013692982 0.008757066
0002d0 59 a2 8c 3c 95 d0 a2 bc 5f 04 35 bc 47 77 94 3c
       0.017167257 -0.01987485 -0.011048405 0.018123282
0002e0 eb c9 a3 3c 21 72 99 bc 8e 45 a2 3c 51 fe f3 3c
       0.019993743 -0.018731179 0.019808557 0.029784353
0002f0 27 61 8f bc 4f 34 36 bb d1 75 68 bb 82 6d 25 bc
       -0.01750238 -0.0027802174 -0.0035470615 -0.0100969095
000300 ad 4b 7f 3c e7 1e a1 bb 0a b8 55 3c 18 d9 b6 3c
       0.015582007 -0.004917014 0.013044367 0.022320315
000310 a0 43 35 bc 56 56 e8 ba 5f 69 be b9 6a 95 3e 3c
       -0.011063486 -0.0017725925 -0.00036318132 0.011632303
000320 f4 57 20 bc 49 ad c9 ba fd 71 86 3c 91 07 8c 3c
       -0.009786595 -0.0015386726 0.016411776 0.017093452
000330 40 88 f1 3b 7e 47 9d bb 7e 9a 39 3a 33 52 bc bc
       0.0073709786 -0.0047997823 0.0007080211 -0.022988414
000340 89 e3 f3 b9 01 5f 60 3c 82 5b b7 bc 9e e0 3e 3c
       -0.000465181 0.013694526 -0.022382502 0.011650233
000350 0b 1b 9e 3b 7e 19 5b bc bc 9f a4 bc c3 a5 83 ba
       0.004825001 -0.013372777 -0.020095699 -0.0010043908
000360 92 38 90 bb 56 6f 79 39 71 f7 a5 3a 00 ed 0b bc
       -0.004401275 0.00023787966 0.0012662244 -0.008540392
000370 7a 3d 96 bb ee 6a ff bb 15 ab 7e 3c 9a 12 90 bc
       -0.0045849653 -0.0077947294 0.015543719 -0.017586995
000380 fc 48 21 3c c8 20 c0 bb 91 ad b6 3c e1 ec 0d bc
       0.009844061 -0.005863283 0.02229956 -0.008662433
000390 51 8e 52 bb ae ef 0d 3c 51 f6 49 bc b7 5a b6 bc
       -0.0032128284 0.008663101 -0.012326793 -0.022260053
0003a0 f5 6a 88 bc 5d e6 95 3b c0 14 a9 bb c1 10 4d 39
       -0.016652564 0.0045745806 -0.0051599443 0.00019556565
0003b0 4f ff 48 3b 15 6f d7 3b a8 95 28 bc 8e 89 f9 bb
       0.0030669754 0.0065745213 -0.010289587 -0.0076152747
0003c0 84 52 b7 bc 74 84 8c 3c ae 48 99 3c 0b 47 aa bc
       -0.022378214 0.017153002 0.018711414 -0.020785829
0003d0 96 0f 69 3c 7f 1e 3e 3c fe d9 71 bc bf d1 23 3c
       0.014224907 0.0116039505 -0.014761446 0.009998738
0003e0 09 14 8a 3c 87 ae 8f 3c 66 34 b0 3c f1 64 07 3c
       0.016855257 0.017539276 0.02150936 0.008263812
0003f0 33 35 38 3c 4f af 96 3c f3 4c 8f bc 63 69 52 3c
       0.011243152 0.01839414 -0.017492747 0.012842509

base_model.model.model.layers.0.self_attn.k_proj.lora_B.weight f4 [256, 16]
000000 fe 75 7e bb 6c 53 58 bb 32 35 5d 3b 3e 44 44 bb
       -0.0038827653 -0.0033008708 0.003375363 -0.0029947902
000010 d7 15 22 bb 68 53 2c 3b f0 5e 2d bb 48 18 47 bb
       -0.0024732256 0.0026294831 -0.0026454292 -0.0030379463
000020 a9 c4 28 3b 09 d2 67 bb 02 f5 46 3b ea ed fb 3a
       0.0025751984 -0.0035372993 0.0030358438 0.0019220684
000030 4f 3b 02 bb 92 1f 3b 3b 72 2c 03 3b a0 a8 09 3b
       -0.0019871776 0.0028552753 0.0020015505 0.002100505
000040 3a d8 00 bc 56 be ea bb 57 d0 fb 3b a6 7d fa bb
       -0.007864052 -0.007163803 0.007684748 -0.007644373
000050 63 0c fb bb 53 e0 d9 3b 26 72 fc bb 03 32 dc bb
       -0.0076613887 0.006649056 -0.0077040372 -0.006719829
000060 2b 5b c9 3b b4 7e e8 bb 01 f3 e7 3b d7 4c c8 3b
       0.0061449013 -0.0070951823 0.007078529 0.0061126756
000070 d8 9e 8b bb f7 b1 ec 3b f7 5d 0c 3c 98 be dc 3b
       -0.004260879 0.0072233635 0.008567325 0.0067365877
000080 a7 39 85 bb de 3a 3e bb f0 2d 73 3b 1c be 53 bb
       -0.0040657106 -0.0029026787 0.0037106238 -0.003230936
000090 b2 3f 6d bb f4 51 72 3b 22 90 5d bb 05 5d 80 bb
       -0.0036201295 0.0036975117 -0.0033807834 -0.003917339
0000a0 e8 d7 88 3b ed 76 83 bb d6 8f 83 3b 1c a6 39 3b
       0.0041761287 -0.00401198 0.0040149493 0.0028327769
0000b0 33 0f 00 ba 3e 4e 67 3b ea a2 19 3b f9 e8 71 3b
       -0.00048850774 0.0035294439 0.0023443052 0.0036912544
0000c0 4a cc c1 bb b3 2f bf bb d8 c2 c9 3b 95 e0 ca bb
       -0.0059142457 -0.0058345436 0.0061572604 -0.006191323
0000d0 ac 1a ae bb dc 5b cb 3b 3e 12 c6 bb 9a d7 b6 bb
       -0.005313238 0.006206019 -0.006044655 -0.005579901
0000e0 17 bd c8 3b 11 5e df bb 17 dc c9 3b 5f 06 ae 3b
       0.006126057 -0.0068166335 0.00616027 0.005310818
0000f0 7e de 62 bb b3 77 c8 3b 8d 73 af 3b 07 3e b8 3b
       -0.003461748 0.006117785 0.005354351 0.0056226286
000100 5e 9e ca bb ba d0 d4 bb fc e6 d5 3b 1f cf db bb
       -0.0061834296 -0.0064946087 0.0065277796 -0.0067080404
000110 e9 61 da bb a2 e6 d0 3b 18 93 ea bb d9 49 d6 bb
       -0.006664504 0.00637515 -0.007158648 -0.006539565
000120 69 d4 ca 3b 90 42 dd bb f5 9e ba 3b 63 4c a0 3b
       0.006189872 -0.0067523196 0.0056952187 0.0048919185
000130 e1 58 e8 ba 00 b9 c9 3b b4 38 e7 3b 11 05 d9 3b
       -0.0017726683 0.006156087 0.00705632 0.0066229184
000140 8f 25 b9 3b 7c 1a 9e 3b f5 91 ca bb f0 03 cd 3b
       0.0056502293 0.0048249345 -0.00618195 0.006256573
000150 95 b0 df 3b 3b 7a ba bb 2a 54 cc 3b 77 68 d9 3b
       0.00682647 -0.0056908405 0.006235619 0.0066347676
000160 6f 8d cf bb ef f0 db 3b 7d bd ed bb 82 60 ba bb
       -0.006333999 0.006712071 -0.007255255 -0.005687774
000170 9c 22 6d 3b f5 a5 bf bb e7 90 bd bb d3 ad c7 bb
       0.003618396 -0.005848641 -0.005785096 -0.0060937195
000180 66 8f d8 b9 54 c8 26 ba 58 db 5b 3a f4 13 8c 3a
       -0.0004130557 -0.00063622487 0.0008386872 0.0010687099
000190 a9 69 08 3b 59 19 43 ba 09 b4 03 3b 28 52 98 3b
       0.0020814931 -0.0007442437 0.0020096323 0.0046484657
0001a0 7a b9 98 bb 62 bd 92 3a f1 3a bc ba 8b 70 27 bb
       -0.0046607824 0.0011195356 -0.0014360828 -0.0025549259
0001b0 ba 09 2d bb 85 8c 95 3a 40 90 d8 39 74 44 67 bb
       -0.0026403503 0.0011409676 0.00041306205 -0.0035288604
0001c0 dd a8 e6 bb 29 a4 c2 bb b6 5e fe 3b 0b a0 f5 bb
       -0.007039173 -0.0059399796 0.0077627553 -0.0074958852
0001d0 89 bd 07 bc 01 bf dc 3b dd 59 ff bb ed e0 ee bb
       -0.008284935 0.0067366366 -0.007792695 -0.007289997
0001e0 07 60 da 3b db af e7 bb 2c 5f fe 3b e5 51 be 3b
       0.0066642794 -0.007070524 0.00776281 0.0058081024
0001f0 ec 6f af bb 97 bc ec 3b 46 b5 e4 3b 6d 62 03 3c
       -0.0053539183 0.00722463 0.0069796173 0.008019072
000200 32 14 09 b8 5a eb 41 ba e8 7b d7 b9 52 a6 15 3b
       -3.2682154e-05 -0.0007397436 -0.00041100313 0.002283473
000210 7f 53 71 3b cf d5 fb ba 4e 65 52 3b f5 a5 93 3b
       0.003682345 -0.00192135 0.003210384 0.0045058676
000220 a5 5b 8e bb bf ea c4 3a 34 ec ed ba e0 2a 6e bb
       -0.004344421 0.0015023573 -0.0018152059 -0.0036341473
000230 70 63 4c bb 56 8e f7 b8 38 60 6d 39 27 ee a0 bb
       -0.00311872 -0.0001180439 0.00022637926 -0.0049112025
000240 b4 d1 22 bb 35 34 52 bb eb e0 4f 3b 5b fb 93 bb
       -0.002484423 -0.0032074575 0.0031719755 -0.004516048
000250 f2 d5 b7 bb fa dc 94 3b 48 d9 b1 bb 38 8d a2 bb
       -0.005610221 0.004542944 -0.0054275133 -0.0049606822
000260 1d 39 e7 3b 44 25 97 bb eb af 91 3b 47 36 7f 3b
       0.007056369 -0.0046125967 0.00444602 0.0038942264
000270 dc e2 04 3b fe ed 6c 3b 4c b0 33 3b 0b 1a c6 3b
       0.002027682 0.0036152597 0.0027418314 0.006045585
000280 9e c0 74 bb a0 cb 84 bb e7 bb 5e 3b b1 50 8e bb
       -0.0037346254 -0.0040525943 0.003398651 -0.0043431153
000290 fa 47 8a bb 7d 44 6f 3b d8 b1 9b bb ad d9 d1 bb
       -0.004220006 0.0036509328 -0.0047514252 -0.006404123
0002a0 be 38 5f 3b 80 76 8f bb 7e 27 8e 3b 58 dc c6 3a
       0.003406092 -0.00437814 0.004338204 0.0015171869
0002b0 e4 89 0b bb aa 46 5c 3b a9 86 8a 3b b6 ea 70 3b
       -0.0021291906 0.0033611455 0.0042274785 0.0036760992
0002c0 c6 44 87 ba 99 c2 4c ba d0 01 b4 3a 79 78 aa ba
       -0.0010320179 -0.000781098 0.001373345 -0.0013005874
0002d0 34 5d ab ba 54 e9 db 3a a8 51 fb b8 73 a8 84 ba
       -0.0013074041 0.0016777911 -0.00011983822 -0.0010121003
0002e0 52 af 38 3b 5b 1d b8 ba 5f 34 43 3a 4e 6e b1 3b
       0.002818067 -0.0014046835 0.00074464636 0.0054147607
0002f0 f2 8b 56 38 55 97 f8 3a e7 5a 78 3a 29 96 38 3b
       5.115191e-05 0.0018965999 0.0009473995 0.0028165674
000300 51 d1 d3 3a 59 0d 1e 3b 03 8d 38 bb 14 c5 0c 3b
       0.0016160404 0.0024116843 -0.0028160221 0.0021479772
000310 69 a3 22 3b 66 84 2a bb 13 d6 c6 3a 61 db 30 ba
       0.0024816638 -0.0026018857 0.001517 -0.0006746557
000320 42 aa 9b bb aa 2c 7b 3b 9d 6e 49 bb e7 40 2b bb
       -0.004750521 0.0038326182 -0.0030736097 -0.0026131214
000330 14 a9 32 3b f5 2f 27 bb ed 2f 99 ba 93 b6 1a bb
       0.0027261423 -0.0025510762 -0.0011687257 -0.0023607358
000340 ef 66 93 39 24 df 71 3a 4e 7c b9 ba 91 54 3c 3a
       0.00028114716 0.0009226671 -0.0014151426 0.0007184232
000350 f5 aa 65 3a 3b 52 d7 ba 5b e8 ff 38 eb 9f 9b ba
       0.00087611313 -0.0016427705 0.00012202627 -0.0011873221
000360 7e de 43 bb 18 74 bc 3a 25 af 27 ba fd dc 7c bb
       -0.0029887254 0.001437786 -0.0006396643 -0.0038583868
000370 dd 76 c8 3a 4b 7d f3 ba f3 61 d5 b8 21 46 f2 ba
       0.0015294213 -0.0018576769 -0.00010174876 -0.0018484035
000380 cd 7d 31 bb 5d fb fc ba d3 eb 91 3b 02 f8 5a bb
       -0.002708304 -0.0019300986 0.0044531613 -0.0033411984
000390 1b f4 84 bb ec 14 74 3b 55 84 54 bb c6 1a 41 bb
       -0.00405742 0.0037243916 -0.003242751 -0.002946542
0003a0 89 67 05 3c aa b8 ea bb aa 7d ca 3b 8c ef 50 3b
       0.0081423605 -0.007163127 0.006179531 0.0031881062
0003b0 39 fc 0d 3b 4e cc 50 3b 24 6a 2d 3a ce f5 89 3b
       0.002166523 0.0031860056 0.00066152425 0.0042102104
0003c0 10 76 63 bb 38 ae 95 bb 37 b5 64 3b ba 31 92 bb
       -0.0034707822 -0.0045678876 0.0034898052 -0.0044614943
0003d0 0c 21 8b bb 5d 85 82 3b 16 cd a2 bb b7 fa b2 bb
       -0.004245883 0.0039831833 -0.004968296 -0.0054620164
0003e0 db 36 63 3b 33 73 96 bb b7 a5 76 3b 97 51 05 3b
       0.0034670148 -0.0045913695 0.0037635395 0.002034282
0003f0 5f 4c 77 bb 16 a7 4b 3b 13 20 9d 3b 87 78 75 3b
       -0.003773473 0.0031074933 0.0047950833 0.0037455873

base_model.model.model.layers.0.self_attn.o_proj.lora_A.weight f4 [16, 2048]
000000 cb be dc bc 79 f1 8c 3c b8 25 d2 bb 96 1e d2 3c
       -0.026946446 0.017204987 -0.006413188 0.02564935
000010 90 5c a3 bc f4 41 4f bb fa f5 9b 3b 41 ca d8 3c
       -0.019941598 -0.0031625004 0.0047595473 0.02646363
000020 51 c5 19 bb e7 0d 82 bb 11 8c 73 3c cc 22 a8 bc
       -0.0023463557 -0.0039689424 0.014864937 -0.020524405
000030 ae b5 08 ba ed 9e 27 3b 6b 70 f9 3b f9 f4 56 bc
       -0.00052150607 0.0025576905 0.007612278 -0.0131199295
000040 6e 10 ad 3a 27 5b 3d 3c 71 c4 5b bc 8e bc 79 bc
       0.0013203749 0.011557377 -0.0134135345 -0.015242709
000050 28 d0 82 b7 b0 c1 0d 3c ea 4e b0 bc 01 e9 60 bc
       -1.5594138e-05 0.008652136 -0.021522004 -0.013727427
000060 fe 3e 0c bc 08 68 97 bb c5 7f 07 bc 6f c0 83 3c
       -0.00855994 -0.004620556 -0.008270209 0.01608297
000070 a7 5e c8 3c a6 03 ff b9 ea 59 83 bc e0 77 1c bc
       0.024459196 -0.00048640108 -0.016034085 -0.009550065
000080 f7 7c 18 3c 92 46 ef 3c 0e 36 bc 3b b8 5b 3a bc
       0.009307138 0.029208455 0.0057437485 -0.0113744065
000090 d9 ed 80 bc 36 00 df 3c 81 5a af bb 9e d9 e6 3b
       -0.015738415 0.02722178 -0.005351365 0.007044985
0000a0 32 ac 92 ba b0 4d 57 bc 7b e2 94 bb 2a 74 eb 3c
       -0.0011190234 -0.013141081 -0.0045436 0.028741915
0000b0 c8 54 37 bc 20 50 06 bc b4 ad 97 bc f3 60 cb ba
       -0.011189647 -0.008197814 -0.018515445 -0.0015516564
0000c0 ca cc 11 3c b4 73 3d 3b b2 e9 7d 3b d6 73 72 3b
       0.008898923 0.0028908076 0.003874403 0.0036995313
0000d0 59 54 97 3c d3 32 7c 3a d3 d0 d6 bc 66 d1 b4 3b
       0.018472837 0.00096206105 -0.026222622 0.0055181263
0000e0 3d 2b a3 bb a0 44 a6 3a 1d c8 97 3b 72 ed 79 3b
       -0.0049795196 0.0012685247 0.0046320097 0.0038135913
0000f0 34 23 a5 bc 13 6e 8b bb 35 87 ba bc 58 c3 5b 3c
       -0.020158388 -0.004255065 -0.02276955 0.013413273
000100 32 db e9 bc bc a4 a2 3b 14 1e 92 3c 02 92 8b 3c
       -0.028546903 0.0049634855 0.017836608 0.017037395
000110 9b 99 27 3b 98 ca 4a 3b 37 8c 04 bc 89 f2 86 3c
       0.0025573734 0.003094351 -0.00809007 0.016473072
000120 a3 a2 04 3b 77 8c 74 3c 0c 86 0e bc fe 84 0f 3c
       0.002023854 0.014926068 -0.008698951 0.008759735
000130 27 b3 b1 bc 6e 63 a7 bc f2 3d c6 3c b7 52 c8 bc
       -0.021691872 -0.020433154 0.02419946 -0.024453504
000140 c5 22 83 39 25 fd 56 bc 83 e4 bc bc 3b b2 f5 bb
       0.00025012172 -0.013121878 -0.023058182 -0.0074980534
000150 dc e9 ae 3b 85 59 c5 3b 62 8a b4 bc 6d e1 02 bc
       0.005337937 0.0060226345 -0.022038642 -0.007988316
000160 e9 25 41 bc ea ca 33 bc fa 7d 59 3c df 62 be bb
       -0.011788824 -0.010973671 0.013274664 -0.005810126
000170 29 5e a5 ba d1 03 4a 3c 9e ec 31 bc bb 17 10 3c
       -0.0012616563 0.012330011 -0.010859637 0.00879472
000180 99 d9 a7 3c 17 58 87 3c 56 29 01 bc 72 5f 9d 3c
       0.0204895 0.016521497 -0.00788339 0.019210551
000190 a7 f0 43 bc 77 b1 74 bb 75 31 86 3b 72 fe 81 bc
       -0.011959231 -0.0037337223 0.004095251 -0.0158684
0001a0 6a 8c 78 bc a9 8a 49 bc b1 17 cc 3c ae 5f 24 bc
       -0.015170196 -0.012301126 0.02491364 -0.010032577
0001b0 b9 25 d3 3c d2 5c 30 bc c1 2a 8d bc 17 41 6e 3c
       0.025774824 -0.010764318 -0.0172323 0.014541886
0001c0 48 fb a6 bc fe ce 1a 3c c7 5d 35 bc 34 df b0 ba
       -0.020383492 0.009448765 -0.011069722 -0.0013494254
0001d0 6e 7f 65 3b fc 15 de 3b 3e 7d b8 3a 66 b4 e9 bc
       0.003501858 0.006777523 0.0014075411 -0.028528403
0001e0 15 b9 a3 3c 8e 9e 42 bc 66 c3 5f bc cb 35 89 3c
       0.019985715 -0.011878623 -0.013657426 0.016749283
0001f0 f4 dc 9f bc 85 c5 0a bb 3a 7d 4b bb a4 f9 2c 3c
       -0.019514538 -0.002117486 -0.0031049983 0.010557566
000200 11 b7 6c bb 29 7e e7 bb 88 c4 39 bc ee 45 00 3c
       -0.0036119858 -0.0070646 -0.011338361 0.007829173
000210 95 83 b7 bc 2f 06 3c 3c ea 0b de 3b 6d c5 26 bc
       -0.02240161 0.011476084 0.0067763226 -0.010178906
000220 71 90 8f bc 43 48 44 ba 28 69 67 3b 5a 31 37 3b
       -0.01752493 -0.00074875745 0.003531048 0.0027953
000230 9e ba 51 bb 79 45 9e bc 72 07 24 3c 3a d6 dd bc
       -0.0032002102 -0.019320237 0.010011541 -0.02707969
000240 00 23 98 3a ad b8 2d bb c1 f3 ca bc b3 97 0c bb
       0.001160711 -0.002650778 -0.024774434 -0.0021452724
000250 c9 03 ad 3c 00 c7 64 3c 6b c2 56 bb fb 60 f4 3c
       0.021119969 0.013963461 -0.003276969 0.0298314
000260 e0 f7 9a 3c 6f be 5d bc d2 2b d4 3b 6b b6 f4 3b
       0.018917024 -0.013534172 0.0064749504 0.007468035
000270 34 ea 05 3c 77 d1 d8 3b f0 82 46 3c 78 16 1e bc
       0.008173514 0.006616767 0.012116179 -0.009648912
000280 88 5b 1a 3c 90 99 bb 3b 7d 5d 19 bc 69 f3 b3 3c
       0.009421237 0.005725093 -0.009360668 0.021966653
000290 82 8c 4f bc e2 64 82 bc 3f c2 83 3c 3c 79 f0 bb
       -0.012667777 -0.015917245 0.016083835 -0.007338671
0002a0 fd b4 a2 bc 39 04 e4 3b 6a b9 9b 3c 48 d2 4a ba
       -0.019861693 0.006958511 0.01900931 -0.0007737023
0002b0 03 79 b7 3c 9d 56 5c bb 90 ce 2e bc 17 fb 48 bc
       0.02239657 -0.0033620961 -0.0106693655 -0.012266896
0002c0 35 33 10 bc b1 25 8b 3c 85 95 5e 3c 09 55 a2 ba
       -0.008801271 0.016985746 0.013585453 -0.0012384962
0002d0 1d 87 cd bb 92 c4 57 bb a0 af 4e 3c 71 9a b1 bc
       -0.0062722103 -0.0032923562 0.012615114 -0.021680089
0002e0 8a c9 b2 bb 76 71 b1 ba ad b7 3b bb d0 62 4f 3c
       -0.0054561542 -0.0013537842 -0.0028643415 0.012657836
0002f0 91 0b 94 3a b7 bd 2a 3c cb a1 88 3b ab f0 8f 3c
       0.0011294951 0.010421208 0.004169678 0.017570814
000300 93 6c 12 3c 57 32 92 3c 92 72 aa bc b1 25 1a bc
       0.008937019 0.01784627 -0.020806585 -0.0094084
000310 61 34 47 bc 4d 9e aa bb db 67 6c 3b 1d d6 51 3b
       -0.012158484 -0.005206859 0.0036072645 0.003201849
000320 3d 93 83 bb f2 34 f3 bb 9b d6 87 3c 67 e1 cc bc
       -0.004015355 -0.007422083 0.016581824 -0.025009824
000330 46 da 20 3c bb a1 c5 bb b9 48 2f bc 44 7f cf bb
       0.009817665 -0.0060312427 -0.010698491 -0.00633231
000340 43 30 97 3a 5e 61 89 3c 8e 4d 1b 3b 56 c3 c1 3c
       0.0011534769 0.016770061 0.002369735 0.023652714
000350 d0 c9 b3 3c 2f 2c d0 3c f5 05 54 3c f6 56 b8 3c
       0.021946818 0.025411693 0.012940873 0.022502404
000360 29 1d c9 3c fd a9 3a bc 52 7f 19 3c 6c 28 85 3c
       0.024550037 -0.011393067 0.009368734 0.016254626
000370 33 66 aa 3b ef d9 f7 ba 1a 92 14 bc 77 8e 9a 3c
       0.0052001714 -0.0018909554 -0.009068036 0.01886676
000380 12 2c 21 3c ff 37 a4 3c 2a f9 36 bb 5c e6 04 bc
       0.009837167 0.020046232 -0.002791951 -0.008111563
000390 4a f8 f2 3b f6 2d 1d bc 50 b3 2c bc 30 f2 2f 3c
       0.0074148523 -0.0095934775 -0.010540798 0.010738894
0003a0 74 c9 8a 3b 14 d5 37 3c 7e 07 ca 3c 43 f2 4b bc
       0.004235441 0.011220235 0.024661776 -0.012447896
0003b0 37 89 04 bc 73 64 92 bc 70 0a 1a ba c7 42 3e bc
       -0.008089355 -0.017870164 -0.0005876189 -0.011612601
0003c0 c6 61 b2 bc 38 99 25 3b 59 c1 57 bb e9 24 e2 bb
       -0.021775138 0.0025268327 -0.003292164 -0.0069013727
0003d0 c9 22 34 b9 d4 90 c0 bc 88 8a bd ba a5 d3 d9 bc
       -0.00017179096 -0.02350656 -0.0014460841 -0.026590178
0003e0 ec 00 45 3b 9a 2c 56 bc 07 89 99 bb fe d3 8f bc
       0.0030060364 -0.013072157 -0.0046855244 -0.01755714
0003f0 fa f9 cb bc 3b 1b d7 bc b5 69 dd bc 4a cb 71 3c
       -0.024899472 -0.026258102 -0.027027944 0.014757941

base_model.model.model.layers.0.self_attn.o_proj.lora_B.weight f4 [2048, 16]
000000 f3 ff ec 3b 13 87 d2 3b b5 bc b1 bb 0c 4e c9 3b
       0.00723266 0.0064247935 -0.005424107 0.006143337
000010 dd a8 02 3c a3 d2 06 bc f2 f7 84 3b 8b 24 83 3b
       0.00797483 -0.008228931 0.0040578777 0.004002159
000020 62 8c 65 bb 20 8c ac 3b b7 9d 7a 3b f6 24 b9 bb
       -0.0035026302 0.0052657276 0.0038240978 -0.005650158
000030 a5 30 02 bc 9c 23 c6 bb f4 40 00 bc b8 3b cf 3b
       -0.007946168 -0.0060467254 -0.007827986 0.0063242577
000040 e7 aa c4 3b 3b 34 d7 3b d0 8a c6 bb 5d a6 04 3c
       0.0060018185 0.0065675057 -0.006059028 0.008096305
000050 4e 3d ac 3b 9b 5b 68 bb ee 91 58 3b 66 ac a4 3b
       0.0052563315 -0.0035454992 0.0033045965 0.0050254343
000060 ab 29 a0 ba a3 06 83 3b 72 46 ae 3b fd 47 c1 bb
       -0.0012219449 0.003998594 0.0053184563 -0.0058984742
000070 55 e9 77 bb 40 ac a9 bb f4 5f 90 bb 3b 23 d0 3b
       -0.0037828286 -0.0051780045 -0.0044059698 0.006351856
000080 6f ae ac b8 ab 31 2c 39 53 9d 2d 39 93 57 38 3a
       -8.23409e-05 0.00016421701 0.00016557174 0.00070320925
000090 95 54 0f 3a d7 8e 3f ba 70 61 a2 b9 94 76 ef b9
       0.0005467621 -0.00073073566 -0.00030971644 -0.0004567398
0000a0 fb 20 09 3a 59 88 76 3a ae b9 1d 39 eb 7f ee 38
       0.000523105 0.00094044727 0.00015041858 0.00011372551
0000b0 1d 4c 6a ba df b1 d1 ba fc 18 94 bb b6 0e c1 b9
       -0.00089377334 -0.0015998444 -0.00451958 -0.0003682279
0000c0 dc 30 bb b9 e1 41 95 ba bd 1c 89 3a bf c3 05 bb
       -0.00035703823 -0.0011387431 0.0010460835 -0.0020410863
0000d0 b9 e7 4c b8 a5 63 a3 ba 3f 29 a0 3a b0 43 5f b8
       -4.88532e-05 -0.001246561 0.0012219324 -5.3230382e-05
0000e0 31 8e e4 ba bf 59 2e 39 e3 66 91 39 74 ff 82 3a
       -0.0017437396 0.00016627366 0.00027733212 0.0009994344
0000f0 8f 15 2b 3a 33 45 3b ba 39 68 39 ba e1 e9 d3 ba
       0.0006526345 -0.00071437954 -0.00070727203 -0.0016167724
000100 be fe 0a bb e2 8b 74 bb 6f d2 48 3b 14 fb 72 bb
       -0.0021208967 -0.0037314822 0.0030643006 -0.0037075924
000110 57 27 2c bb 3b ba 4b 3b 2c 17 9a ba de b1 d5 ba
       -0.0026268566 0.0031086344 -0.0011756173 -0.0016303619
000120 42 5a d5 3a 2d 62 8f bb 8a b0 08 bb 95 8f 14 3b
       0.0016277509 -0.004375717 -0.0020857179 0.002266859
000130 7e 28 74 3b d9 37 4d 3b 07 64 3f 3b 7a 42 3d bb
       0.003725558 0.0031313805 0.0029203908 -0.0028878734
000140 d5 69 01 bb 59 32 47 bb 38 6d 12 3b 29 5b 50 bb
       -0.0019746919 -0.0030395 0.0022342931 -0.0031792617
000150 2e 6f ea ba 9f 73 26 3b ec 3c c3 ba 4b aa 2f bb
       -0.0017885917 0.0025398505 -0.0014895475 -0.0026804383
000160 af da 20 3b df 3e 42 bb 28 73 3a bb 9f 14 44 3b
       0.0024544408 -0.0029639525 -0.0028449986 0.0029919518
000170 b9 1a 94 3a ba 89 06 3b ff 30 78 3b fc b8 c9 ba
       0.0011299468 0.0020528869 0.0037871 -0.0015390213
000180 06 f8 6e bb 22 71 52 bb 50 6e 81 3b aa 76 6d ba
       -0.0036463751 -0.003211089 0.003949918 -0.0009058515
000190 ef 91 79 bb 20 92 b1 3b 6d 3e ff bb b2 07 a3 bb
       -0.0038081368 0.005419031 -0.007789424 -0.0049752826
0001a0 15 cd 1b 3c a5 a1 c7 bb d4 e4 a1 bb e3 d9 65 3b
       0.009509345 -0.0060922676 -0.0049406085 0.0035072498
0001b0 63 8f 87 3b ca 3e 9b 3b 53 5d 91 3b 28 1e 55 bb
       0.004136966 0.0047377096 0.004436174 -0.0032519195
0001c0 b9 cd 38 3b 5c c2 c7 3a 90 43 1e bb cd f8 08 3b
       0.0028198792 0.0015240419 -0.0024149157 0.002090025
0001d0 e9 94 9a 3a 21 cf 00 bb 9f ce e7 3a f7 10 05 3b
       0.0011793646 -0.0019654708 0.0017685479 0.0020304301
0001e0 a2 af cf ba 82 bc e3 39 d4 38 b7 3a 7d b0 d8 ba
       -0.0015845189 0.00043437263 0.0013978728 -0.001653209
0001f0 cd 9f e1 b9 56 af d7 ba c0 f5 ad ba bf b1 49 3b
       -0.00043034405 -0.0016455452 -0.0013272092 0.003077611
000200 38 9f 01 3c 87 8c 05 3c b0 a7 00 bc d8 18 0d 3c
       0.007911496 0.00815118 -0.00785248 0.00861188
000210 c6 64 de 3b 04 44 02 bc 86 97 d1 3b 1b ef f3 3b
       0.0067869155 -0.0079507865 0.006396237 0.007444275
000220 33 f5 cf bb 51 f1 fd 3b e6 5a f8 3b bd 24 fd bb
       -0.0063463687 0.0077497144 0.0075791953 -0.007725327
000230 0e f7 01 bc d8 21 00 bc 77 68 b7 bb 9d 1b f9 3b
       -0.007932438 -0.007820569 -0.00559717 0.0076021687
000240 5e 57 43 3b 66 80 03 3b 30 ee 25 bb 57 b3 c4 3a
       0.0029806714 0.0020065545 -0.0025318973 0.0015007061
000250 6b dc 92 3a 6c 07 f6 ba 17 be 23 3b c3 40 3b 3b
       0.0011204606 -0.0018770522 0.0024985129 0.0028572537
000260 43 4a 32 bb de 3d 4a 3b a0 9a 17 3b 94 38 11 bb
       -0.0027204908 0.003085963 0.0023132935 -0.0022158967
000270 62 f2 35 bb 42 94 be ba 97 88 e0 39 4c 92 21 3b
       -0.002776288 -0.0014540034 0.00042826377 0.002465385
000280 46 21 fe bb 18 02 ce bb b8 32 08 3c 5a ea aa bb
       -0.0077554313 -0.0062868707 0.008312874 -0.005215925
000290 bf 22 f4 bb cb 37 15 3c 0d 61 11 bc 74 7a 21 bc
       -0.007450431 0.00910754 -0.008873236 -0.009855855
0002a0 f8 11 2f 3c 4d 81 2b bc fc 8f 2d bc 78 dd 0d 3c
       0.010685436 -0.010467839 -0.010593411 0.008658759
0002b0 fd 30 e3 3b c6 00 03 3c 78 c3 e5 3b eb 40 e0 bb
       0.00693333 0.00799579 0.007011827 -0.0068436763
0002c0 29 74 8b b9 8a 27 b6 39 85 92 d6 ba 0e 67 4f bb
       -0.00026598692 0.00034743204 -0.001637057 -0.0031647119
0002d0 2c 31 14 3b 0f d1 98 b9 6e f2 57 3b ee c7 25 3b
       0.0022612317 -0.0002914746 0.0032950896 0.002529617
0002e0 f5 d7 a4 bb 2e cc e5 3a 91 81 47 3b 70 a4 8f ba
       -0.005030627 0.0017532164 0.0030442218 -0.001095904
0002f0 1c 65 d7 39 36 3d 23 bb a7 32 6f ba 6b ce d2 38
       0.00041083328 -0.002490831 -0.0009124674 0.00010052029
000300 70 e8 04 bb 52 96 5f bb 36 1f 4b 3b 70 3e 0c bb
       -0.0020280145 -0.0034116697 0.0030993945 -0.002139952
000310 df e1 23 bb 6e c6 3e 3a 9c 48 15 bb b5 6f 3f bb
       -0.0025006456 0.0007277493 -0.0022778874 -0.002921087
000320 cc ba 9b 3a ce 65 d1 ba bf 8e 0e bb 09 91 2f 3b
       0.0011881231 -0.0015975775 -0.0021752564 0.0026789329
000330 bb 66 00 3b 61 5b 23 3b aa 49 51 3a a4 35 f2 ba
       0.0019592482 0.0024926292 0.0007983694 -0.0018479121
000340 74 53 45 bb eb 36 84 bb 49 02 7f 3b 5b a1 6d bb
       -0.0030109556 -0.004034867 0.0038911274 -0.0036259505
000350 9c 0d 63 bb 82 c6 0b 3b 6f 3c 10 bb 0b 56 43 bb
       -0.0034645563 0.0021328037 -0.0022008677 -0.0029805924
000360 d1 bc 21 bb 2b 24 16 bb 55 88 4f bb 55 a8 66 3b
       -0.0024679194 -0.0022909741 -0.0031666954 0.0035195549
000370 cd f2 20 3b fd a6 2e 3b b6 c6 a8 3a cb 5c 8b bb
       0.0024558783 0.0026649826 0.0012876603 -0.004253005
000380 a4 de 93 3a 9c 10 c2 39 cc a6 05 bb ab f1 22 bb
       0.0011281562 0.00037014938 -0.0020393608 -0.0024863284
000390 94 93 a9 3a b0 7e 09 ba 23 ee a5 3b 99 d3 f1 3a
       0.0012937658 -0.0005245013 0.0050637885 0.0018449902
0003a0 f2 c8 0c bb e1 4e 0f 3b 40 b5 c3 3a 70 69 c6 b9
       -0.0021482077 0.0021867084 0.0014931336 -0.0003784406
0003b0 02 96 b3 ba 50 79 9c ba 7c f6 33 bb 00 03 0b 3a
       -0.0013701322 -0.0011938009 -0.0027460149 0.0005302876
0003c0 d0 82 5b 3b 34 e7 3d 3b 06 ff 66 bb 4a b4 02 3b
       0.0033494718 0.002897692 -0.003524722 0.0019943886
0003d0 f2 9f 63 3b 20 e5 0c bb 30 d3 8a 3b 5d 08 6f 3b
       0.0034732786 -0.0021498874 0.0042366013 0.003647349
0003e0 3b 33 a1 bb dc 45 84 3b 91 cb 77 3b 22 45 88 bb
       -0.004919437 0.004036648 0.0037810544 -0.004158632
0003f0 23 8a 80 bb 90 49 24 bb d3 48 56 ba 49 70 7b 3b
       -0.003922717 -0.002506826 -0.0008174304 0.0038366488

base_model.model.model.layers.0.self_attn.q_proj.lora_A.weight f4 [16, 2048]
000000 e8 63 75 bc ab 52 a9 ba eb 79 d6 ba 41 06 89 bb
       -0.014977433 -0.0012918314 -0.0016363239 -0.0041816537
000010 bd af a4 bc fb e0 29 bc 63 dc e2 3b a9 c2 9e 3c
       -0.02010333 -0.010368581 0.006923245 0.01937993
000020 8a 67 64 bc 49 18 ec 3b c4 bf ae bb 99 8a eb bb
       -0.013940701 0.0072050435 -0.005332919 -0.007188153
000030 a0 35 bf 3c ab 94 47 bc f9 e0 4f bb 0e 64 cf bc
       0.023341 -0.012181441 -0.0031719788 -0.025316264
000040 a3 ca a9 bc 08 60 b4 bc 5e e0 bc 3c b7 bd d7 3c
       -0.020726508 -0.022018448 0.023056205 0.02633558
000050 63 6a 36 3b 30 8c de 3b 95 68 e5 3b c5 0b 57 bc
       0.0027834408 0.006791614 0.0070009925 -0.013125365
000060 c4 2a 22 bb 41 5e ed 3a b2 ac 80 bc 1c c1 c2 bb
       -0.0024744729 0.0018109755 -0.015707348 -0.0059434306
000070 7b 98 af bb f7 07 bb bb c7 2d 2b 3c 7c 68 a4 3b
       -0.0053587533 -0.0057077366 0.010447926 0.0050173383
000080 bb f0 70 3b ef 5f 01 3b 3d b1 77 bc 39 ba c9 3b
       0.003676458 0.0019741019 -0.0151179405 0.0061562327
000090 61 33 8d bc 6a f8 84 3b 72 4a b4 bb 4a 9d 61 3c
       -0.017236413 0.0040579336 -0.0055020386 0.013770411
0000a0 23 fe 55 bc a5 dd b2 3c ee fa 0d 3c a8 54 55 bc
       -0.013061079 0.021834204 0.008665783 -0.013020672
0000b0 b7 fe 64 3b ee d0 5b bb 41 6e 86 bc 1c aa d1 3b
       0.003494186 -0.003354128 -0.016409995 0.0063984524
0000c0 42 e4 2d bc 8f db b9 bc be 8a 8f bc 9e e5 a0 3b
       -0.010613503 -0.022687702 -0.017522212 0.004910185
0000d0 3e 65 9d 3c c9 64 6e bc a9 03 d1 3b 55 d6 64 bc
       0.019213315 -0.014550396 0.00637861 -0.013967116
0000e0 76 cb 7c bc 2f db 2f bc 21 4d 16 bb 63 2e 39 bc
       -0.015429368 -0.01073341 -0.0022934156 -0.011302563
0000f0 61 0c d4 ba 20 3f d0 3c 73 90 52 3c 6c 58 2a 3c
       -0.0016178006 0.025420725 0.012851822 0.010397058
000100 0a e5 a4 bb 3d 26 2c 3b cb e2 89 3c fa 28 6d 3c
       -0.0050321864 0.002626791 0.016831776 0.014475102
000110 ce 79 ed 3b b1 01 5c bc 7e ef c5 bb a0 75 dc bb
       0.0072471863 -0.013428138 -0.0060405126 -0.006727889
000120 bb 8c 8a bc 4c db 9c bc e3 67 07 3a 0c 9e 1d bc
       -0.016912809 -0.019147538 0.00051653216 -0.009620201
000130 33 a4 81 bb 28 78 7b bc 03 80 e7 3b 6d fa 30 bc
       -0.0039563417 -0.015348472 0.0070648207 -0.010801894
000140 83 82 08 3c 95 93 1d ba 22 92 8a ba 25 b7 f9 3b
       0.008331898 -0.0006011066 -0.0010572115 0.0076207095
000150 7a bd 1b bc 76 05 d8 3c 13 ca e4 bb 74 46 07 3c
       -0.009505624 0.026369791 -0.006982097 0.008256543
000160 31 d3 d6 bb db a3 11 3c 48 16 9c bc ce 02 84 3c
       -0.0065559377 0.008889164 -0.019053593 0.016114619
000170 d1 7a 19 3c f1 2e e6 bb 48 a8 42 3c f0 a3 6c bc
       0.009367661 -0.007024639 0.011880942 -0.014443383
000180 42 3f 2d bb 4d fc 5e bc 95 19 0f 3c 50 6e f1 3c
       -0.002643541 -0.013609958 0.008734127 0.029471546
000190 15 ce c3 bb 8c ef 6b ba 7a 86 2e 3a 68 c6 50 bb
       -0.0059754946 -0.0009000234 0.0006657612 -0.003185654
0001a0 ce 92 76 3b 60 2c 82 3b 5d 29 9f 3c 83 b3 94 bc
       0.0037624124 0.003972575 0.019428903 -0.018152004
0001b0 c2 c9 7c 3c 94 17 d2 3b fd 9d 6f 3b b7 47 1d 3c
       0.015428962 0.006411502 0.0036562674 0.009599618
0001c0 7f 40 d7 ba 5b a9 ba bb 5e 20 ed bb 06 06 7e bb
       -0.001642242 -0.0056964583 -0.0072365245 -0.0038760914
0001d0 fc 49 22 bb 21 ab 85 ba 51 31 80 bc ee 5f 85 3b
       -0.0024763336 -0.0010198095 -0.015648516 0.0040702736
0001e0 0f 84 20 bc 7e 5c 00 bc cb 38 bd bb 1c f9 b4 3b
       -0.00979711 -0.007834552 -0.0057745925 0.00552286
0001f0 9e 1b 10 3b ad 72 64 39 d4 cd 86 bc 2a 61 2e bb
       0.0021989117 0.00021786494 -0.016455568 -0.0026608207
000200 e3 cb a7 3c 09 ad 68 3c 3a 76 95 bb 95 f8 46 3c
       0.020482963 0.014201411 -0.004561213 0.0121442275
000210 6b 8c 2f 3c 5b b0 5f bc 39 ac 9e bc da ab d9 3c
       0.010714631 -0.013652886 -0.019369232 0.026571203
000220 9d f1 ca 36 20 a0 6a 3c 22 d8 5d 3c 69 83 6b bb
       6.0481966e-06 0.014320403 0.0135403 -0.003593648
000230 f1 ae 0a 3c a1 31 a1 3b 38 46 86 bb bb 2e 7d 3c
       0.008464561 0.0049192463 -0.004097726 0.015453036
000240 d1 09 99 bc 5f 04 a3 bc e1 da 2d 3b f2 ae 68 bc
       -0.018681439 -0.019899545 0.0026528167 -0.014201866
000250 72 c5 a1 3a e3 03 74 bc 56 cc bc 3b a9 3e 98 bc
       0.0012342168 -0.014893505 0.0057616634 -0.018584566
000260 75 ad cc 3b dd fc 62 bb 38 ed 45 3c 82 91 be bb
       0.0062462636 -0.0034635582 0.012080483 -0.0058156857
000270 8b 3e 60 3c 84 12 3d bc 44 2f 72 bc 29 82 c2 3c
       0.013686786 -0.011540059 -0.014781777 0.023743706
000280 ab bb 2b bc f4 90 89 bc 09 74 6c ba 6b 12 7b 3c
       -0.010481755 -0.016792752 -0.0009019976 0.015324215
000290 6a 24 94 3c 8a 2f e1 3b 13 a9 34 bc 12 c0 9b bc
       0.01808377 0.006872122 -0.011026639 -0.019012485
0002a0 16 71 8a bb 7f c8 6b 3c 78 bc 8a bc d5 74 d4 ba
       -0.0042249067 0.014391064 -0.016935572 -0.0016209135
0002b0 44 76 d8 3c bc 87 66 3c 58 ad eb 39 63 8f dc 3a
       0.026423581 0.0140704475 0.00044951844 0.00168274
0002c0 8d ed b1 3a ae 0b bd 3b fa 51 77 bc d3 35 8c 3b
       0.0013574824 0.0057692146 -0.015095228 0.0042788773
0002d0 18 61 8e 3c 4f 18 14 bc b0 41 3f 3c 06 ef 94 bc
       0.017380282 -0.009038999 0.011673376 -0.018180382
0002e0 79 1f 23 3c 05 a6 74 bb 61 3f 85 3c ac 48 55 bc
       0.009956234 -0.00373304 0.016265573 -0.013017815
0002f0 f5 b6 59 bc 2a e4 41 3c 8b 46 c6 ba 41 c9 4d bc
       -0.013288249 0.011834184 -0.0015127225 -0.01256019
000300 09 2c 79 bc d9 6d fa b9 4c 1e 49 3c a3 35 1c bc
       -0.015208253 -0.0004776556 0.01227529 -0.009534272
000310 e5 35 fb bb 63 f8 d7 3c f8 43 c3 bc c7 e2 bd 3b
       -0.007666337 0.026363557 -0.023836121 0.005794856
000320 84 55 93 3c f5 3b a3 3c 17 60 84 3c 0c df 8d bc
       0.017985113 0.01992605 0.0161591 -0.017318271
000330 0f 63 6b ba f4 29 1f 3b f5 dd 3a 3b 12 79 0e 3c
       -0.00089792995 0.002428648 0.0028513644 0.008695858
000340 12 a0 c6 bc b8 6f 92 3c b1 1f 98 bc 89 c3 6e 3a
       -0.02424625 0.017875537 -0.0185698 0.00091081165
000350 db 76 28 bc fc 55 5e bc f6 4a 71 3b 78 20 b0 bc
       -0.010282244 -0.013570305 0.0036818362 -0.021499857
000360 93 c6 49 bc e7 bb 94 bc 84 52 6c 3c 8b c2 5e bc
       -0.01231541 -0.018156005 0.01442397 -0.013596187
000370 64 17 10 bb ad e7 4c 3c 15 0f d2 3b 6f f0 65 bc
       -0.0021986598 0.012506408 0.0064104893 -0.014034375
000380 10 09 13 3c 86 57 53 3c d6 15 e2 3b 49 02 77 bc
       0.008974329 0.012899285 0.0068995757 -0.015076228
000390 09 62 5f bc 32 19 c8 3c b5 6e 87 bc f4 1b df 3b
       -0.013634213 0.024426077 -0.016532281 0.006808752
0003a0 aa f2 86 bb e3 89 b3 bb 4a ce 82 bc 7f 86 35 3b
       -0.0041182833 -0.005479084 -0.015967507 0.0027698574
0003b0 e2 d4 b8 3a ca 28 3c bc c8 d5 7b 3c db 0e 83 3c
       0.001410153 -0.011484334 0.015370794 0.015998295
0003c0 79 f4 bd 3b d8 7c e0 3a 2a 11 7d bc 9f 58 09 3c
       0.0057969657 0.001712705 -0.015445987 0.008382945
0003d0 54 4b bb 3b 4b 3e 9f 3c 50 ef 3d 39 3f 74 7d 3c
       0.005715767 0.019438883 0.00018113595 0.01546961
0003e0 3a fe 6b bb 17 d6 71 3c fd d8 02 bc dc 93 aa bc
       -0.0036009685 0.014760516 -0.007986304 -0.020822458
0003f0 f1 dd 3c 3c 71 e7 54 bb 20 2c f8 3b 65 8f d7 bc
       0.011527524 -0.0032486583 0.0075736195 -0.026313493

base_model.model.model.layers.0.self_attn.q_proj.lora_B.weight f4 [2048, 16]
000000 d8 7c 5a 39 ea 07 06 bb 8a 6d 96 b9 17 42 f2 3a
       0.00020836608 -0.0020451494 -0.00028691842 0.0018482831
000010 48 20 55 3b 5c 04 ca bb d7 a0 3c 3b 35 e0 89 3b
       0.0032520462 -0.0061650705 0.0028782391 0.0042076358
000020 a9 ee 64 3a 16 bc 2b 3b a8 42 81 ba f0 11 4a bb
       0.0008733073 0.0026204637 -0.0009861784 -0.0030833445
000030 f6 93 2d 3b b0 fa 5a 3b bd b4 06 3b 77 1e 86 bb
       0.0026485897 0.0033413582 0.0020554506 -0.004092987
000040 3f e3 82 b9 f5 e7 7a 3b 80 be b1 3a 3f 7a d0 b9
       -0.00024964844 0.003828523 0.0013560802 -0.00039763932
000050 79 ee 66 bb 4e 1f 9b 3b bc 57 fa ba c3 76 8a bb
       -0.0035237356 0.0047339564 -0.0019099633 -0.0042255833
000060 6b 8f a5 ba 78 d1 2e bb a2 b0 92 3a 3f aa 97 3a
       -0.0012631243 -0.0026675146 0.0011191557 0.0011571123
000070 be fb 2b bb 2b de e1 bb 3c ed 27 bb 22 4b a5 3b
       -0.002624258 -0.0068929396 -0.002562358 0.005044357
000080 34 d9 e1 39 8a 88 95 b9 41 00 e1 3a 88 a1 f6 39
       0.00043077173 -0.00028521224 0.0017166213 0.00047041127
000090 37 fd 2c 3b 5f 73 a9 bb 09 5b de b9 27 1f 0e 3b
       0.0026396045 -0.005171224 -0.00042410966 0.0021686049
0000a0 46 8f b3 3a 9b 3e 8b b8 e2 8c 82 39 55 70 e6 39
       0.0013699315 -6.639698e-05 0.00024900498 0.00043952712
0000b0 81 65 bc 3a 91 64 d1 39 cb 3f 00 3b 4c f4 65 3a
       0.0014373512 0.00039938514 0.0019569274 0.000877206
0000c0 a1 56 f7 ba 9f e8 29 3b 26 8d 20 3a b7 7b 1d 3b
       -0.0018870422 0.0025926006 0.00061245484 0.0024030039
0000d0 8d 30 b3 b9 de 35 8c ba b1 51 f6 3a 66 9c eb 3a
       -0.00034177714 -0.0010697206 0.0018792656 0.0017975688
0000e0 d7 04 f1 ba fc 1f 0e 3b 10 64 36 3b df 51 8d 3a
       -0.0018388283 0.0021686545 0.0027830638 0.0010781846
0000f0 b8 84 d5 ba ce 0b 7d 3a 2c 2d c1 ba c0 8a 23 3b
       -0.0016290164 0.0009652943 -0.0014738194 0.0024954528
000100 74 75 0e 3a 89 2f 4b 3b 74 92 05 bb 69 92 4c ba
       0.0005434372 0.0031003675 -0.0020381482 -0.0007803799
000110 57 d2 4c bb 80 cf 7a 3b 31 42 17 b9 2e c8 84 bb
       -0.0031253302 0.0038270652 -0.0001442514 -0.0040521836
000120 eb e4 6e ba 70 1b bd ba 5d a7 1d 39 e2 34 21 3b
       -0.0009113091 -0.0014427733 0.00015035034 0.002459817
000130 18 e0 da ba 16 64 45 bb 17 42 91 ba 27 26 93 3a
       -0.0016698865 -0.003011947 -0.0011082318 0.001122658
000140 24 22 6c ba 8f be 04 bb d7 53 a5 ba 8f e9 1d bb
       -0.0009007773 -0.0020255183 -0.0012613487 -0.002409551
000150 9b 93 81 ba c2 db c5 3a 67 16 cb ba a0 27 e4 ba
       -0.0009885909 0.00150954 -0.0015494347 -0.0017406829
000160 52 e0 09 3b 6f 1b 82 ba a9 72 80 bb 67 d4 92 ba
       0.0021038246 -0.0009926389 -0.0039199186 -0.0011202217
000170 40 a4 cf 3a 4f 63 d9 ba d7 01 0c 3a bf b5 25 bb
       0.0015841797 -0.0016585382 0.00053408503 -0.002528533
000180 03 fe be 3a 30 99 08 3b 2a 8c 5b 3b a2 d4 fa 3a
       0.0014571551 0.002084326 0.0033500292 0.0019136856
000190 77 9d 31 3a 11 5a c6 ba b6 b3 4b 39 92 ff 83 3a
       0.0006775478 -0.0015133043 0.00019426536 0.0010070673
0001a0 62 2a 12 bb 26 b0 86 b8 7a b0 72 3b 68 e1 d3 3a
       -0.0022303094 -6.422428e-05 0.0037031458 0.0016165199
0001b0 4e 82 03 bb c7 f1 c0 3a 2d 8d 1e ba 66 96 67 3b
       -0.0020066681 0.0014720493 -0.00060482585 0.0035337447
0001c0 61 6d bf 3a 81 64 32 3b 32 02 47 3b 61 93 3c bb
       0.0014604741 0.002722055 0.0030366299 -0.0028774368
0001d0 d3 e1 b1 bb 27 b5 09 3c b8 76 21 bb 09 9f ed bb
       -0.0054285317 0.0084050065 -0.0024637412 -0.0072516245
0001e0 e7 ce a2 ba b3 8d a9 bb 07 85 79 ba 92 30 03 3a
       -0.0012421281 -0.0051743626 -0.0009518419 0.0005004491
0001f0 a2 28 09 bb cd 81 a6 bb 85 c3 24 bb 29 14 1b 3b
       -0.002092876 -0.0050813914 -0.0025140953 0.002366314
000200 f1 55 15 3b 6d 67 99 3b bc 06 86 3b 05 0f 9f 3a
       0.002278682 0.0046815188 0.0040901583 0.0012135213
000210 7d 0c 91 ba bf 01 6e 3a f9 c6 7a b9 85 2d af ba
       -0.0011066344 0.00090792397 -0.00023915981 -0.0013365006
000220 b3 9e 75 bb b5 df c5 ba cd 0a 81 3b ab 60 32 3b
       -0.0037478625 -0.0015096577 0.003938055 0.0027218263
000230 b9 0e 7f bb ce 1a 39 b9 55 15 24 bb 3c da af 3b
       -0.0038918687 -0.0001765296 -0.002503713 0.0053665917
000240 b2 c1 23 bb 27 fa 9b bb 73 d2 8a bb f8 02 24 ba
       -0.0024987278 -0.004760045 -0.0042365133 -0.0006256546
000250 11 41 a7 3a ef c3 d5 ba 69 63 d2 3a 52 13 32 3b
       0.001276048 -0.0016309003 0.0016051355 0.002717216
000260 11 90 65 3b 7c cf 2b 3b 14 a2 5f bb 5d 10 27 bb
       0.0035028497 0.00262162 -0.0034123706 -0.002549193
000270 73 f9 7f 3b de 71 65 3a 76 14 12 3b a5 fb bf bb
       0.0039058595 0.0008752624 0.0022290028 -0.005858856
000280 8c d5 30 ba a0 48 b3 38 b9 59 40 3b 48 71 23 bb
       -0.0006745688 8.5489126e-05 0.0029350354 -0.0024939347
000290 2e 2f 82 bb 33 8c df 3b 14 62 86 bb 8a dc f3 bb
       -0.0039729094 0.006822133 -0.0041010473 -0.007442062
0002a0 07 05 77 3a c0 f7 d3 bb 05 41 e2 bb f8 37 39 bb
       0.00094230514 -0.006468743 -0.0069047236 -0.002826212
0002b0 d8 fd b8 ba da 60 a6 bb 4b e0 5f ba 1b e4 f9 3a
       -0.0014113737 -0.0050774636 -0.0008540197 0.0019065173
0002c0 4f e4 7c 3b 58 b4 49 bb ac 6a 4c 3b 67 84 bb 39
       0.003858823 -0.003077766 0.003119151 0.00035766067
0002d0 3f 24 8d 3b 70 56 9f bb 81 28 82 bb 8e 6c 24 3b
       0.0043072994 -0.004862599 -0.0039721136 0.0025089118
0002e0 ab f2 84 39 d6 b8 da ba bd 0c c9 3a c0 28 1e 3a
       0.00025357804 -0.0016687165 0.0015338879 0.0006033294
0002f0 e0 05 04 3b 87 b1 05 3b d1 32 95 3b 41 ea 2b 3a
       0.0020145103 0.0020400004 0.004553177 0.0006558039
000300 4d fa 48 3a 62 94 d4 3a 17 b5 4c 3b c8 5a 45 bb
       0.0007666692 0.0016218538 0.0031235868 -0.0030113924
000310 f7 51 76 bb c4 6c a0 3b 40 5e 83 bb 4d fa d5 bb
       -0.0037585476 0.0048957784 -0.004009038 -0.0065300823
000320 bd b7 4e ba 03 11 a9 bb d6 25 76 bb 10 4d 1a ba
       -0.00078856555 -0.0051594987 -0.0037559173 -0.0005886117
000330 61 d5 4a bb 98 ca 6a bb ac 7f f4 ba 06 c4 7e 3b
       -0.0030949938 -0.0035826322 -0.0018653772 0.0038874163
000340 57 28 91 bb 1c 95 a1 3b e9 7c e2 ba 54 c4 48 b9
       -0.0044298577 0.0049311053 -0.0017279658 -0.00019146624
000350 7c c2 a1 bb ab 6f a1 3b 22 74 17 3b a8 72 62 bb
       -0.0049365144 0.004926642 0.0023109992 -0.0034553204
000360 b4 ba 1c bb de 3b da b8 52 2c 9c ba 25 2b d1 38
       -0.0023914995 -0.00010406201 -0.0011915064 9.973933e-05
000370 68 c8 7f bb 29 c5 27 bb 2f ec a9 bb e2 5e ff 3a
       -0.0039029364 -0.0025599694 -0.005185626 0.0019483233
000380 99 65 8a ba ac 04 54 bb 8e eb 99 bb 83 35 f4 b9
       -0.0010558843 -0.0032351417 -0.0046972698 -0.00046579176
000390 ea fc 70 3a 26 6c af ba 64 dd da 3a 61 6d 3b 3b
       0.00091929606 -0.0013383671 0.001669806 0.002859913
0003a0 42 ff 39 3b 29 15 67 3b f0 0e d7 ba ea dc 53 ba
       0.0028380905 0.0035260415 -0.001640765 -0.000808193
0003b0 f5 61 60 3b 03 f9 8b 3a e3 0c c1 3a 4c bc 99 bb
       0.0034238074 0.001067907 0.0014728572 -0.004691636
0003c0 40 12 38 bb b8 82 90 3b 6c 34 a8 3a 55 0a 9c ba
       -0.002808705 0.004410114 0.0012833006 -0.0011904935
0003d0 cf c1 b8 bb d5 17 5d 3b c9 b6 8e b6 e1 99 93 bb
       -0.005638338 0.0033736129 -4.2532088e-06 -0.004504428
0003e0 d9 85 41 bb 7c 22 fa ba 3e 51 8d 39 3b 85 cb 39
       -0.0029529242 -0.0019083763 0.00026954146 0.00038818442
0003f0 c8 7a 94 bb 64 13 88 bb a5 9a 96 bb f8 d3 57 3b
       -0.004531238 -0.004152702 -0.004596072 0.003293274
